mnist_model.pth (torch, 408695 bytes, 4 tensors)

layer1.weight f4 [128, 784]
0.040211152 0.026534164 -0.018782938 0.034526166 -0.021149948 0.044568397 0.010262179 0.004623596
-0.01857255 0.011596812 0.010261439 -0.018719625 0.012104765 0.017617263 0.007914152 -0.02261643
0.03608888 -0.0001196382 0.041870154 -0.008918554 0.016444737 -0.024776021 0.034341704 -0.0015166559
0.027451323 -0.01551528 0.019363683 -0.014881074 0.021599157 -0.008674537 -0.019281378 -0.02638394
0.041005567 0.021828104 0.0028893587 0.041370045 0.022345496 0.01529916 -0.022048991 -0.015491231
0.032628067 -0.012568478 -0.017766077 0.010928861 0.0036583585 -0.02581525 0.027576834 0.027098697
0.0106282905 -0.011230497 -0.008296594 0.019556606 0.0030953577 0.0429817 -0.016286993 -0.00039147574
0.029863102 0.023650318 0.023156451 0.034552887 0.026218124 -0.0040633557 -0.0044550104 0.02731472
0.0065539367 -0.021713605 -0.02283381 0.009577539 0.020933984 0.03490121 0.0037621895 0.013540921
0.017822385 -0.013065275 -0.022087155 0.004768493 0.00072825106 -0.016439723 -0.014094957 0.0022264747
-0.025623258 0.042916052 0.0031207823 -0.014370113 0.013839259 0.02215769 0.03251362 0.024535218
-0.014762481 -0.018476894 0.015377557 0.016395964 -0.021689408 0.0052891574 0.020772776 0.012955427
0.041787002 -0.028761243 0.0328852 0.01272782 -0.03152356 -0.0058999164 0.03494281 -0.023399398
-0.00013925198 0.033423334 0.042568166 -0.026807006 0.034652565 -0.0037827704 -0.00091842015 0.021687908
0.044116214 -0.019565579 0.03397625 -0.016950715 -0.008418314 0.028593734 0.033545014 -0.0011775236
-0.027949981 -0.008222548 0.02694099 0.0028034998 -0.021874415 0.036699966 -0.0013436972 -0.015582852
-0.007693399 -0.046920724 -0.037681807 -0.04014696 -0.014790669 0.00650291 0.005410136 0.009012046
-0.019228356 0.0027897316 0.03275423 0.044541888 -0.0025185666 0.025925333 -0.020348098 0.010301489
-0.025161697 -0.010615652 -0.03075271 -0.03896485 0.014259858 -0.0030579097 -0.019291086 0.026229693
0.04245693 0.09221465 0.015164034 0.009345665 -0.039344244 -0.0003134848 -0.0685424 0.012922839
-0.027562914 -0.010573115 0.0031934436 -0.022471162 -0.010127692 -0.016065506 0.026655097 0.005278484
0.014721322 0.02863351 0.010861678 0.03841042 0.026438259 -0.016740857 0.0016325352 -0.0378704
-0.022214869 -0.074528106 -0.031286012 0.03202632 -0.009293863 0.06841898 0.055738986 0.00723136
0.021922199 0.04837254 0.02131856 -0.010661808 0.00023237824 -0.045152135 -0.038260017 -0.010685001
-0.004858564 0.03260488 0.0043124254 0.028396234 -0.0032697185 0.00054915826 -0.022045089 -0.02293533
-0.0061182287 -0.043038137 -0.052373223 -0.06005542 -0.08739293 -0.05315202 -0.05388771 -0.018366588
-0.05558636 0.05785621 0.07428806 0.07889779 0.09739782 0.061527118 0.04062692 0.058829546
0.030724254 -0.0004919877 0.004139978 -0.046435937 -0.011481632 -0.02512447 -0.01964749 0.011634397
-0.017613309 -0.0017064271 -0.028109962 0.01600046 -0.0147022 -0.008924684 0.0037134062 -0.05890954
-0.008960354 0.023088362 -0.03327774 -0.013850391 -0.03271882 9.412868e-06 -0.01843756 0.020137107
0.095322356 0.03617701 0.01834418 0.01792601 -0.026473075 -0.0013119826 -0.05147421 -0.043884467
-0.0068854145 0.013500555 -0.009509794 -0.0043818336 0.033223532 -0.002952404 0.024298126 0.014230702
00000000: 73b4 243d 2d5e d93c adde 99bc 4f6b 0d3d
00000010: a842 adbc 5a8d 363d b322 283c 8981 973b
00000020: 7625 98bc 8e00 3e3c 981f 283c e659 99bc
00000030: 1053 463c 1452 903c 5caa 013c 1746 b9bc
00000040: efd1 133d 45e6 fab8 0a80 2b3d 201f 12bc
00000050: 1db7 863c 15f7 cabc e3a9 0c3d 87ca c6ba
00000060: 99e1 e03c cd33 7ebc 96a0 9e3c c0cf 73bc
00000070: b7f0 b03c a51f 0ebc fbf3 9dbc 2223 d8bc
00000080: 74f5 273d dad0 b23c 655b 3d3b a373 293d
00000090: e70d b73c 54a9 7a3c 16a0 b4bc efce 7dbc
000000a0: 02a5 053d 04ec 4dbc 2a8a 91bc f70e 333c
000000b0: 12c1 6f3b 817a d3bc d0e8 e13c 16fe dd3c
000000c0: 4822 2e3c 1e00 38bc 70ee 07bc 2d35 a03c
000000d0: 7cdb 4a3b 940d 303d 4d6c 85bc fc3e cdb9
000000e0: 77a3 f43c 50be c13c 99b2 bd3c 5487 0d3d
000000f0: 64c7 d63c e625 85bb 56fb 91bb 1fc3 df3c
00000100: 68c2 d63b bbe0 b1bc f80d bbbc 1ceb 1c3c
00000110: bf7d ab3c 92f4 0e3d 118f 763b bdda 5d3c
00000120: 4000 923c bc0f 56bc 1ff0 b4bc 0541 9c3b
00000130: 1ae8 3e3a 99ac 86bc 89ee 66bc 0cea 113b
00000140: dee7 d1bc bec8 2f3d 0a86 4c3b 9f70 6bbc
00000150: 0fbe 623c 0b84 b53c 002d 053d 15fe c83c
00000160: 55de 71bc db5c 97bc 26f2 7b3c d450 863c
00000170: fcad b1bc ab50 ad3b ab2b aa3c 0043 543c
00000180: d928 2b3d b39c ebbc a2b2 063d 5988 503c
00000190: d91e 01bd 1654 c1bb 3120 0f3d 18b0 bfbc
000001a0: 2b04 12b9 e8e6 083d f55b 2e3d 5e9a dbbc
000001b0: d9ef 0d3d 5be8 77bb 22c2 70ba d7aa b13c
000001c0: 34b3 343d fe47 a0bc ae2a 0b3d 3adc 8abc
000001d0: f8ec 09bc 683d ea3c 7f66 093d 2357 9aba
000001e0: 5cf7 e4bc deb7 06bc 5ab3 dc3c ecba 373b
000001f0: f931 b3bc b452 163d ff1e b0ba 384f 7fbc
00000200: e918 fcbb f22f 40bd 3d58 1abd 2471 24bd
00000210: 9054 72bc 5d16 d53b 8347 b13b 43a7 133c
00000220: c984 9dbc eed3 363b 4d29 063d 8e71 363d
00000230: 890e 25bb 5d61 d43c 0eb1 a6bc 94c7 283c
00000240: e71f cebc 46ed 2dbc 1bed fbbc 9b99 1fbd
00000250: 2ea2 693c 3667 48bb 5708 9ebc a7df d63c
00000260: 51e7 2d3d 09db bc3d 9272 783c 8f1e 193c
00000270: 6e27 21bd 385b a4b9 f55f 8cbd 51ba 533c
00000280: 9fcb e1bc dc3a 2dbc 1849 513b 7115 b8bc
00000290: 9eee 25bc cf9b 83bc ca5b da3c 22f7 ac3b
000002a0: b331 713c d390 ea3c 2ef5 313c 3f54 1d3d
000002b0: 0c95 d83c 1f24 89bc cbfa d53a fe1d 1bbd
000002c0: f5fb b5bc 31a2 98bd c325 00bd 082e 033d
000002d0: 4945 18bc 401f 8c3d 904e 643d 0bf5 ec3b
000002e0: 2f96 b33c 4922 463d 43a4 ae3c ddae 2ebc
000002f0: 8faa 7339 72f1 38bd 89b6 1cbd 2410 2fbc
00000300: 9734 9fbb b28c 053d 3f4f 8d3b 389f e83c
00000310: c648 56bb 63f5 0f3a e797 b4bc e0e2 bbbc
00000320: 6c7b c8bb c248 30bd 4e85 56bd acfc 75bd
00000330: 11fb b2bd efb5 59bd 5cb9 5cbd 8775 96bc
00000340: 86ae 63bd a2fa 6c3d 5724 983d 2a95 a13d
00000350: 8278 c73d dc03 7c3d 6a68 263d 40f7 703d
00000360: 6eb1 fb3c bcf8 00ba a7a8 873b 9c33 3ebd
00000370: 741d 3cbc d5d1 cdbc c6f3 a0bc 339e 3e3c
00000380: c949 90bc 31aa dfba dd46 e6bc 6613 833c
00000390: 7fe1 70bc d638 12bc 9e5c 733b 214b 71bd
000003a0: 73ce 12bc ce23 bd3c 3d4e 08bd c0ec 62bc
000003b0: 2b04 06bd f6eb 1d37 5e0a 97bc 93f6 a43c
000003c0: 5e38 c33d 582e 143d 8946 963c 91d9 923c
000003d0: 10de d8bc d5f6 abba 9fd6 52bd 33c0 33bd
000003e0: 0b9f e1bb 6f31 5d3c f8ce 1bbc 7c95 8fbb
000003f0: 6615 083d 1f7d 41bb dd0c c73c e427 693c

layer1.bias f4 [128]
-0.021266837 -0.04068579 -0.014089796 0.020106459 -0.034101192 0.025617119 -0.0034470349 0.0118708415
-0.021978276 -0.0047522625 -0.0063686124 -0.01594163 0.027436998 -0.011889695 -0.0384122 -0.0067120288
-0.009665305 0.00026789977 -0.011662189 -0.013983401 0.030181227 0.0076972703 0.013727435 -0.0014165608
0.0133201 -0.023435473 0.011513858 -0.0013046646 -0.039839614 -0.0010582502 0.025755726 -0.026831195
-0.00040524805 -0.032032803 -0.0270082 0.0045918776 -0.0036984058 -0.017711045 0.0033172767 0.022739207
-0.0029307478 -0.014526416 0.024843823 -0.026872443 0.008741319 -0.039753493 -0.020657772 -0.007556593
0.005420128 0.010386089 0.014870783 0.019539857 -0.010824842 0.014788131 0.006803434 0.009412411
0.01931275 -0.036152184 0.004276311 -0.031822205 -0.018293837 -0.0005931133 -0.036329295 -0.020695811
-0.014097182 -0.02354646 -0.024513924 -0.05833767 -0.028017897 0.01049582 -0.0120253 0.014927031
-0.015357705 -0.010542436 0.028591087 -0.029011587 0.006544607 0.013556058 0.023321692 0.008674119
-0.013617306 0.00044166288 -0.046037864 -0.014458622 0.007224464 0.0013015828 -0.0027623444 -0.02725308
-0.023348354 -0.030232154 -0.007593068 -0.0013644788 0.037303194 -0.019122213 -0.017330283 -0.012099624
-0.0054176264 -0.026032373 -0.003997343 -0.031221775 -0.029447919 0.0009869254 0.0058166427 -0.013735179
-0.031782757 -0.028419103 -0.03534066 0.035750665 -0.00013677834 0.022045575 0.025612738 -0.00790854
0.016072348 -0.015525975 0.0009171141 -0.014433008 -0.033240993 -0.013711838 0.034155507 0.014689545
0.032316204 -0.011108131 -0.016820583 -0.0038724726 0.01084884 -0.024387594 -0.00024962865 0.023286391
00000000: ca37 aebc 25a6 26bd e3d8 66bc 4db6 a43c
00000010: b1ad 0bbd feda d13c a6e7 61bb eb7d 423c
00000020: c90b b4bc deb8 9bbb cbaf d0bb 0598 82bc
00000030: 8ec3 e03c ffcc 42bc 1c56 1dbd 94f0 dbbb
00000040: 3a5b 1ebc e674 8c39 c412 3fbc a21a 65bc
00000050: 9f3e f73c 6239 fc3b 09e9 603c e5ab b9ba
00000060: 8c3c 5a3c c0fb bfbc 9fa4 3c3c 4801 abba
00000070: dd2e 23bd fcb4 8aba acfd d23c 18cd dbbc
00000080: 7977 d4b9 d434 03bd 4d40 ddbc 7677 963b
00000090: f460 72bb c116 91bc ab66 593b 9347 ba3c
000000a0: ca11 40bb 3400 6ebc 4685 cb3c 9923 dcbc
000000b0: c037 0f3c 8fd4 22bd 7d3a a9bc 4c9d f7bb
000000c0: 549b b13b 6a2a 2a3c 96a4 733c 0d12 a03c
000000d0: ae5a 31bc eb49 723c 57ef de3b 8336 1a3c
000000e0: c635 9e3c 5014 14bd 4c20 8c3b 0058 02bd
000000f0: f5dc 95bc 297b 1bba 07ce 14bd 438a a9bc
00000100: def7 66bc 81e4 c0bc 6dd1 c8bc 7bf3 6ebd
00000110: ca85 e5bc a9f6 2b3c c405 45bc 8190 743c
00000120: e29e 7bbc 2eba 2cbc db37 ea3c b5a9 edbc
00000130: 2574 d63b 3a1a 5e3c 220d bf3c e41d 0e3c
00000140: 1f1b 5fbc fd8e e739 3392 3cbd dbe3 6cbc
00000150: 32bb ec3b df99 aa3a 7308 35bb da41 dfbc
00000160: 0c45 bfbc 6ca9 f7bc 45cf f8bb 50d8 b2ba
00000170: 3ccb 183d 30a6 9cbc 3df8 8dbc 803d 46bc
00000180: 5886 b1bb d841 d5bc 25fc 82bb cfc4 ffbc
00000190: c33c f1bc b95b 813a 8999 be3b 8409 61bc
000001a0: a32e 02bd 2ecf e8bc 5ec1 10bd 4a6f 123d
000001b0: 286c 0fb9 ec98 b43c ced1 d13c d292 01bc
000001c0: 28aa 833c a960 7ebc 7c6a 703a 6c78 6cbc
000001d0: b527 08bd 9ea7 60bc a5e6 0b3d 6bac 703c
000001e0: ff5d 043d e1fe 35bc 52cb 89bc 4fc9 7dbb
000001f0: 55bf 313c 7ec8 c7bc 97e0 82b9 1ac3 be3c

layer2.weight f4 [10, 128]
-0.13240567 -0.16378565 -0.061467174 0.0011496353 -0.047353733 0.020809608 -0.34622508 0.20443057
-0.09420789 -0.07208104 -0.020503907 0.1657477 0.0045286627 0.056515623 0.15224294 -0.08041005
0.36967248 -0.084301524 -0.02280914 -0.09244007 -0.15721309 -0.15712355 -0.007236656 0.07269347
0.08375227 0.08739927 -0.005109735 0.31774044 0.20772485 0.06969022 0.07723084 0.07436753
0.083834305 -0.044784755 0.33728367 -0.053778645 -0.0539194 -0.15629423 0.09850538 0.04276497
-0.7323692 -0.0018537171 0.2152463 0.47315764 -0.06654352 0.039225537 -0.06279551 -0.12366286
-0.052564133 0.28635818 -0.114957094 0.26929334 -0.30337694 0.2705332 0.28013664 -0.0062789856
0.01208986 -0.06901879 0.2530617 0.08230345 0.15224847 -0.18463722 0.021858083 0.1327833
0.06769866 0.10048466 0.10153824 0.100382924 -0.066071495 0.3661281 -0.18681103 0.14091106
-0.0005870158 -0.38615286 -0.005582273 -0.27476978 -0.01802453 -0.06143086 0.16228935 0.031214036
-0.3853197 -0.3009693 -0.26043966 -0.38923943 0.32511833 0.03420104 0.10432538 0.017698908
-0.17674182 -0.20070879 0.2435433 -0.17476715 0.39607313 -0.37986308 0.05495833 -0.069448754
0.03104115 -0.07243406 -0.46118402 -0.23105614 0.1649042 -0.28757012 -0.53443503 0.37529084
-0.13535197 -0.27431515 -0.018220445 -0.45220122 0.1713249 -0.0482594 0.20174377 -0.1385898
-0.001484407 0.077594325 -0.16936931 0.074033886 0.010884603 -0.029029561 0.28038225 0.030392842
-0.32121804 -0.013883388 -0.018246712 -0.10515171 -0.20225124 -0.23370315 0.034998924 -0.33739614
-0.24479203 0.22474264 0.39818048 -0.15038408 0.11964211 -0.27186385 0.023703245 -0.19556384
0.36987135 -0.067517765 -0.076579235 0.04392435 0.051564343 0.07401098 -0.09312843 0.2548848
0.013272909 -0.051148407 0.02531251 0.022421278 0.3060376 -0.026580542 0.2992237 -0.18789269
0.22964679 0.064387165 0.2988696 -0.2809447 0.061846826 0.061257847 0.16136944 0.08759514
-0.3850479 -0.07059933 -0.15917927 -0.07519836 0.35739532 0.18497625 0.5256954 -0.007827376
0.030288689 0.01469079 -0.19398104 -0.2714334 0.1130958 0.07611037 -0.15460096 0.36960217
0.119153425 -0.15844174 0.045822155 -0.11505874 -0.16338284 0.67063016 -0.107944265 0.09075772
-0.19253007 -0.1772623 -0.54554224 0.07505066 -0.059692822 0.12746392 0.0037631604 -0.13900639
0.11330317 0.02870979 -0.021287007 0.2755237 -0.011874747 0.1447786 0.453382 -0.19926426
0.46300715 0.18400829 0.30387124 -0.34682992 0.075496174 0.49189857 -0.184368 -0.008222459
-0.038944904 0.02164916 0.11689452 0.3404876 -0.13527587 -0.19240926 0.099618964 0.06472412
-0.09566823 -0.04630844 -0.02597026 -0.19669776 -0.43131337 0.09337363 -0.29945832 0.010693535
-0.15077601 -0.062123295 0.033435147 0.38899177 0.32387778 -0.121743396 -0.108952306 -0.15918326
-0.20033337 0.22251712 -0.058899835 0.29743576 -0.14413913 -0.07311569 -0.010767143 -0.16656339
-0.11394883 0.0754841 -0.031143641 -0.09376672 -0.09080576 -0.19572264 -0.22084834 0.08276093
-0.13200225 -0.4095445 0.14622809 0.061727073 0.317337 -0.14319053 -0.084571205 0.08531215
00000000: 5a95 07be 6db7 27be 01c5 7bbd 5caf 963a
00000010: fdf5 41bd e978 aa3c 6a44 b1be 3f56 513e
00000020: 11f0 c0bd 399f 93bd cff7 a7bc c4b9 293e
00000030: 2d65 943b ed7c 673d 93e5 1b3e 06ae a4bd
00000040: b645 bd3e 47a6 acbd 3cda babc 3851 bdbd
00000050: 78fc 20be ffe4 20be 7821 edbb 50e0 943d
00000060: 4f86 ab3d 63fe b23d 906f a7bb e0ae a23e
00000070: d3b5 543e bfb9 8e3d 342b 9e3d 014e 983d
00000080: 52b1 ab3d 3870 37bd 72b0 ac3e ff46 5cbd
00000090: 97da 5cbd 980b 20be 30bd c93d 522a 2f3d
000000a0: 8c7c 3bbf 6df8 f2ba 8769 5c3e b841 f23e
000000b0: f847 88bd f5aa 203d ef9a 80bd f442 fdbd
000000c0: 7d4d 57bd 8a9d 923e a06e ebbd d1e0 893e
000000d0: 3954 9bbe 5483 8a3e 126e 8f3e f3bf cdbb
000000e0: 8c14 463c b959 8dbd 4e91 813e b68e a83d
000000f0: 06e7 1b3e 8a11 3dbe b90f b33c 58f8 073e
00000100: 98a5 8a3d e7ca cd3d 48f3 cf3d 9095 cd3d
00000110: 7e50 87bd 2475 bb3e 644b 3fbe fd4a 103e
00000120: f7e1 19ba d4b5 c5be 80eb b6bb a0ae 8cbe
00000130: 2ea8 93bc ed9e 7bbd 2e2f 263e 94b4 ff3c
00000140: a048 c5be a618 9abe 5958 85be 644a c7be
00000150: e975 a63e 6416 0c3d 8ba8 d53d 4dfd 903c
00000160: cffb 34be 9b86 4dbe 6a63 793e 29f6 32be
00000170: 19ca ca3e 6a7d c2be fc1b 613d 263b 8ebd
00000180: 034a fe3c 4f58 94bd 5020 ecbe fb99 6cbe
00000190: a6dc 283e 643c 93be bcd0 08bf 1f26 c03e
000001a0: b599 0abe 0973 8cbe 0b43 95bc eb86 e7be
000001b0: cb6f 2f3e a6ab 45bd eb95 4e3e 7cea 0dbe
000001c0: 6f90 c2ba c6e9 9e3d 266f 2dbe 149f 973d
000001d0: 5555 323c 67cf edbc 438e 8f3e 69fa f83c
000001e0: b176 a4be 2677 63bc 217a 95bc c859 d7bd
000001f0: f31a 4fbe e14f 6fbe 085b 0f3d 30bf acbe
00000200: c3aa 7abe ef22 663e 50de cb3e 49fe 19be
00000210: ec06 f53d bd31 8bbe 4f2d c23c e341 48be
00000220: c75f bd3e c146 8abd 93d5 9cbd 05ea 333d
00000230: 2235 533d 1293 973d 1eba bebd 4380 823e
00000240: 9e76 593c fe80 51bd 2e5c cf3c d4ac b73c
00000250: f6b0 9c3e 70bf d9bc d933 993e f166 40be
00000260: 8728 6b3e 6bdd 833d 7005 993e fcd7 8fbe
00000270: 1953 7d3d 82e9 7a3d 083e 253e 1565 b33d
00000280: 0025 c5be 6296 90bd e4ff 22be 9901 9abd
00000290: 85fc b63e 6a6a 3d3e f993 063f 653e 00bc
000002a0: fc1f f83c a4b1 703c f7a2 46be 52f9 8abe
000002b0: c59e e73d c1df 9b3d b74f 1ebe 7f3c bd3e
000002c0: b606 f43d 8d3e 22be 03b0 3b3d eba3 ebbd
000002d0: d54d 27be 6bae 2b3f e211 ddbd 2fdf b93d
000002e0: 9a26 45be 4084 35be a8a8 0bbf 29b4 993d
000002f0: 7680 74bd e785 023e 5b9f 763b b157 0ebe
00000300: 7e0b e83d cb30 eb3c 1762 aebc 7111 8d3e
00000310: 4d8e 42bc d740 143e af21 e83e ee0b 4cbe
00000320: 460f ed3e ab6c 3c3e 0395 9b3e b193 b1be
00000330: bd9d 9a3d 21da fb3e f7ca 3cbe 7eb7 06bc
00000340: b184 1fbd 9459 b13c 6566 ef3d 6454 ae3e
00000350: c285 0abe ef06 45be 0705 cc3d 148e 843d
00000360: b4ed c3bd ebad 3dbd 95bf d4bc 236b 49be
00000370: 1bd5 dcbe ac3a bf3d 9a52 99be f033 2f3c
00000380: 0765 1abe ff74 7ebd 4bf3 083d ee29 c73e
00000390: 4fd3 a53e 9a54 f9bd 6322 dfbd f000 23be
000003a0: 3124 4dbe 87db 633e f440 71bd 8049 983e
000003b0: 3599 13be aebd 95bd ac68 30bc 988f 2abe
000003c0: 015e e9bd 6897 9a3d f320 ffbc c408 c0bd
000003d0: 5ff8 b9bd 846b 48be 1126 62be 907e a93d
000003e0: 992b 07be d1af d1be d1bc 153e 87d5 7c3d
000003f0: ff79 a23e 8aa0 12be ab33 adbd 23b8 ae3d

layer2.bias f4 [10]
-0.10599587 -0.10148724 -0.07758367 -0.014600053 0.047847345 0.004258924 -0.05271094 -0.12106026
0.2042746 0.13174582
00000000: 5d14 d9bd 8bd8 cfbd 30e4 9ebd 1035 6fbc
00000010: 94fb 433d 728e 8b3b 6de7 57bd 71ee f7bd
00000020: 5c2d 513e 60e8 063e
